Server/long_term_memory/speech_data.pth (torch, 239039 bytes, 6 tensors)

l1.weight f4 [96, 384]
0.248124 -0.2861586 -0.04672472 -0.21472107 -0.24734777 -0.26707748 0.12512952 -0.09656056
-0.2964242 -0.037352547 -0.0062655746 -0.0034310974 -0.08597959 -0.19865987 -0.63154685 0.4015796
-0.14975797 0.2546957 -0.22736233 -0.04182229 -0.100000404 -0.54528916 0.13079943 -0.12641318
-0.0921234 0.27604598 -0.51731706 0.23598982 -0.22449721 -0.1355301 -0.17606962 -0.103677176
0.23118562 -0.15398613 0.03244706 -0.4173971 -0.23472732 -0.0071156155 0.06142183 0.062436968
0.26372677 0.09461633 -0.31584337 -0.100385636 0.29317465 -0.009039922 -0.11189488 -0.07926701
0.5411352 -0.015574933 0.28621912 -0.2626605 -0.23041037 -0.16726322 0.19017561 -0.2385599
-0.21613944 0.13519615 -0.08960455 -0.0068006543 0.073020115 -0.04856472 0.029424328 -0.3454101
-0.11717273 0.3667092 0.09225491 -0.62104803 -0.061201714 -0.23111261 0.15600899 -0.18494532
-0.13741642 -0.04513735 0.042613853 -0.091525406 -0.41637254 0.00058271695 -0.10430741 -0.2408292
0.151557 -0.1250738 0.7728649 -0.025547182 0.108342074 -0.42038405 0.56185424 0.32663718
-0.21942921 -0.091110475 -0.2373927 -0.43891576 0.19289023 -0.6637506 0.09500946 0.009241234
0.052532025 -0.3946277 0.2684862 0.3297886 -0.30413076 -0.06210374 0.037470408 0.3700726
0.36118615 0.05104913 -0.13642567 0.116893046 0.036709715 -0.11878595 0.1855076 0.18112841
0.04221617 0.4161267 0.15770084 0.02066854 -0.13849522 0.01407248 0.1451804 -0.1400546
-0.074156374 -0.03053089 -0.11021734 0.21907298 0.28796658 -0.43595597 -0.046137977 0.56806296
-0.30798948 0.109449334 -0.2848897 -0.25216323 -0.3294976 -0.02412201 -0.2352716 -0.23273292
-0.23639567 -0.30383193 -0.18199505 0.09173367 -0.35032824 -0.020049557 0.28840172 -0.22943094
-0.08208061 0.031112116 -0.110836536 -0.103603296 -0.31047177 -0.0012569629 -0.17086865 0.11773208
0.14184791 -0.1087283 -0.0959518 0.21146172 -0.11401555 0.075924814 0.20591368 0.07371894
-0.1579054 -0.19398826 -0.27134457 -0.1879254 -0.12880576 0.14374945 0.06347442 -0.17009938
-0.14472869 0.14909917 -0.03503528 -0.37765303 -0.12631476 -0.008417465 0.008179339 -0.08304852
-0.06427647 -0.031762045 0.13613576 0.023563787 0.037258722 0.14093535 -0.0894883 -0.08716418
-0.20333497 -0.24560486 -0.17919691 -0.20340589 -0.06404405 0.33886015 -0.42385688 -0.20525433
0.47013074 0.07232451 0.10475331 0.70545906 -0.30162644 -0.34233347 -0.23747548 -0.066372514
-0.07444925 -0.35467136 -0.04137509 0.0065418375 -0.3456422 -0.35466006 -0.18663129 -0.10482654
0.011581499 -0.011075623 0.41131088 -0.20138697 -0.1678003 0.28933316 -0.031613115 -0.24373691
-0.6306954 -0.48989254 0.007588474 0.27564734 0.43961057 -0.45822644 0.24628691 0.031063283
-0.08477608 0.10900061 -0.075009175 -0.089031264 0.048880775 -0.20538735 -0.38112554 0.028651178
-0.15965094 0.041789412 0.058640596 0.56505525 -0.039060716 -0.47312066 1.2715019 -0.22349896
-0.12908275 0.15670581 -0.028925005 -0.51664525 -0.16108799 -0.08951622 -0.24071577 -0.042549066
0.11155207 0.22282226 -0.32354915 -0.025847951 -0.39304623 -0.20516132 -0.026732987 0.21505007
00000000: 3814 7e3e 6183 92be 6c62 3fbd d7df 5bbe
00000010: bc48 7dbe 61be 88be f421 003e 8bc1 c5bd
00000020: eac4 97be fcfe 18bd 734f cdbb 43dc 60bb
00000030: 1116 b0bd 7e6d 4bbe 0ead 21bf d79b cd3e
00000040: 275a 19be 7a67 823e acd1 68be d94d 2bbd
00000050: 03cd ccbd 1298 0bbf 49f0 053e 7572 01be
00000060: 31ab bcbd e655 8d3e e46e 04bf 51a7 713e
00000070: 99e2 65be 67c8 0abe 984b 34be b354 d4bd
00000080: ecbb 6c3e 8aae 1dbe 35e7 043d 13b5 d5be
00000090: 5c5c 70be 1c2a e9bb 7595 7b3d e8bd 7f3d
000000a0: 3207 873e 35c6 c13d 39b6 a1be fc96 cdbd
000000b0: fd1a 963e 2e1c 14bc 2529 e5bd be56 a2bd
000000c0: d687 0a3f 012e 7fbc 508b 923e 707b 86be
000000d0: b2f0 6bbe 0d47 2bbe 65bd 423e 0c49 74be
000000e0: a853 5dbe dc70 0a3e 9782 b7bd 06d8 debb
000000f0: 928b 953d cdeb 46bd 4a0b f13c 98d9 b0be
00000100: 42f8 efbd 4fc1 bb3e 24f0 bc3d 01fd 1ebf
00000110: a6ae 7abd c9a8 6cbe d2c0 1f3e 4e62 3dbe
00000120: e4b6 0cbe f1e1 38bd dd8b 2e3d ac71 bbbd
00000130: c82e d5be 79c1 183a 209f d5bd ee9b 76be
00000140: c231 1b3e 5913 00be 79da 453f 5348 d1bc
00000150: 73e2 dd3d 943c d7be aed5 0f3f fd3c a73e
00000160: 0db2 60be 2198 babd 1217 73be 91b9 e0be
00000170: 0485 453e 8feb 29bf 5294 c23d 8b68 173c
00000180: d22b 573d a40c cabe 0677 893e 0dda a83e
00000190: 07b7 9bbe 7e60 7ebd 927a 193d 287a bd3e
000001a0: 64ed b83e e418 513d 2cb3 0bbe 9f65 ef3d
000001b0: ed5c 163d 0c46 f3bd b4f5 3d3e ba79 393e
000001c0: ddea 2c3d 8f0e d53e 547c 213e 1251 a93c
000001d0: b1d1 0dbe 4290 663c 2caa 143e 796a 0fbe
000001e0: 4cdf 97bd eb1b fabc a1b9 e1bd ab54 603e
000001f0: 5b70 933e 9f35 dfbe 2dfb 3cbd 936c 113f
00000200: ccb0 9dbe f926 e03d 10dd 91be 8a1b 81be
00000210: e9b3 a8be 869b c5bc 0aeb 70be 8a51 6ebe
00000220: b511 72be dc8f 9bbe e95c 3abe ddde bb3d
00000230: 395e b3be f83e a4bc 64a9 933e f2ef 6abe
00000240: e119 a8bd d6de fe3c 44fe e2bd f72d d4bd
00000250: 28f6 9ebe adc0 a4ba 31f8 2ebe 841d f13d
00000260: 9440 113e f1ac debd 6182 c4bd 6c89 583e
00000270: fc80 e9bd 787e 9b3d 09db 523e f5f9 963d
00000280: f4b1 21be dca4 46be aded 8abe 846f 40be
00000290: a8e5 03be 0e33 133e e0fe 813d 882e 2ebe
000002a0: c233 14be 74ad 183e 2781 0fbd bd5b c1be
000002b0: a858 01be 68e9 09bc a202 063c 5815 aabd
000002c0: 62a3 83bd eb18 02bd 2c67 0b3e d808 c13c
000002d0: 9a9c 183d 5b51 103e a445 b7bd 2283 b2bd
000002e0: 0b37 50be d77f 7bbe 657f 37be a249 50be
000002f0: 8729 83bd 147f ad3e c503 d9be 312e 52be
00000300: fab4 f03e df1e 943d e788 d63d f798 343f
00000310: c86e 9abe 5546 afbe c62c 73be 50ee 87bd
00000320: d978 98bd 7c97 b5be ed78 29bd e95c d63b
00000330: 04f8 b0be 0196 b5be 461c 3fbe 4caf d6bd
00000340: 54c0 3d3c 8876 35bc 5797 d23e 6338 4ebe
00000350: d8d3 2bbe 7a23 943e c17c 01bd 2b96 79be
00000360: 4175 21bf 32d3 fabe bca8 f83b a621 8d3e
00000370: a314 e13e a89c eabe a332 7c3e 6d78 fe3c
00000380: 159f adbd b63b df3d 699e 99bd 0656 b6bd
00000390: 3537 483d 1051 52be e322 c3be e0b5 ea3c
000003a0: 897b 23be 602b 2b3d 1f31 703d 76a7 103f
000003b0: 21fe 1fbd df3c f2be 93c0 a23f e9dc 64be
000003c0: 452e 04be 7d77 203e 22f4 ecbc dd42 04bf
000003d0: 40f4 24be 4854 b7bd 327e 76be ee47 2ebd
000003e0: 6975 e43d 852b 643e 3ca8 a5be 15bf d3bc
000003f0: 5b3d c9be cf15 52be 23ff dabc 1636 5c3e

l1.bias f4 [96]
0.5586602 0.6591821 0.15448716 0.15010181 0.4395745 0.32910454 -0.5457203 -0.9434228
0.28491285 0.66391915 0.40624037 0.75050646 0.19199805 -0.2256366 -0.0686717 -0.61914116
-0.33402085 -0.31527257 -0.97434574 -0.3151399 -0.0077253976 0.63811266 0.5511259 0.35064253
0.41822365 0.33576077 0.4147116 0.719762 0.5650377 0.40231588 -0.64829105 -0.43988058
0.16455579 0.20342794 -0.42775476 0.6272156 0.038920924 -0.11086023 -0.3395926 -0.49737024
0.021292765 -0.764153 -0.01688465 0.3257926 -0.21297923 0.6883072 0.5009519 -0.43229106
-0.36103746 0.2603959 -0.13060196 0.20706007 -0.011267017 -0.22683078 -0.31568518 -0.7378655
0.7467283 -0.56365585 -0.12402427 -0.0054939734 -0.40563986 -0.32030773 -0.017410798 -0.022518957
-0.44877094 -0.083679825 0.33640853 0.3711454 -0.19761318 0.5570507 0.58056474 -0.19772093
-0.37979683 -0.53628886 0.30454588 -0.11750269 -0.3259296 0.458701 0.89979506 0.5641915
0.111669205 0.20346539 -0.6637942 0.85342354 0.4467673 0.47021356 -0.18643391 0.23991553
0.059238404 0.5095171 0.0413087 0.23157804 0.08499049 0.7013276 -0.31762168 0.09104446
00000000: 5b04 0f3f 28c0 283f e231 1e3e 4ab4 193e
00000010: e90f e13e 6480 a83e 53b4 0bbf 2884 71bf
00000020: 19e0 913e 9bf6 293f bdfe cf3e 3121 403f
00000030: 239b 443e 480d 67be c0a3 8cbd 0980 1ebf
00000040: c804 abbe 686b a1be b96e 79bf 045a a1be
00000050: 5525 fdbb 5a5b 233f 9616 0d3f 6b87 b33e
00000060: 6921 d63e d6e8 ab3e 1455 d43e 5342 383f
00000070: 50a6 103f 59fc cd3e 67f6 25bf 0738 e1be
00000080: 5081 283e 6a4f 503e ac02 dbbe 3491 203f
00000090: 8c6b 1f3d b00a e3bd 15df adbe 50a7 febe
000000a0: 2a6e ae3c 889f 43bf ad51 8abc 4ace a63e
000000b0: 3a17 5abe e734 303f 623e 003f 4155 ddbe
000000c0: e7d9 b8be 9d52 853e 85bc 05be 8e07 543e
000000d0: 4b99 38bc 5446 68be 7da1 a1be c1e4 3cbf
000000e0: 9629 3f3f c04b 10bf 7000 febd ca06 b4bb
000000f0: 07b0 cfbe 60ff a3be 17a1 8ebc ad79 b8bc
00000100: 4ec5 e5be 5460 abbd bd3d ac3e c506 be3e
00000110: 1c5b 4abe e09a 0e3f e49f 143f 5b77 4abe
00000120: bb74 c2be 3a4a 09bf 70ed 9b3e 40a5 f0bd
00000130: 3fe0 a6be dcda ea3e f858 663f db6e 103f
00000140: d3b2 e43d 3b59 503e 6bee 29bf f779 5a3f
00000150: afbe e43e d5bf f03e 88e8 3ebe 6bac 753e
00000160: f8a3 723d b66f 023f 5033 293d cb22 6d3e
00000170: 7e0f ae3d 358a 333f 4f9f a2be 8575 ba3d

l2.weight f4 [96, 96]
0.08721405 -0.047939446 0.23461114 0.31395584 -0.83744544 0.18848516 0.5111956 0.2509425
-0.39885083 0.07091531 0.4826239 -0.4226218 -0.8147249 0.6811887 -0.3142211 -0.1234075
0.56827843 -0.2503896 0.5387364 0.035459403 -0.5032228 0.30674773 -1.3432461 0.052591875
0.8283133 0.015963506 -0.2862767 -0.43292144 -0.12971607 0.33875373 -0.52323043 -0.28437045
-0.21358953 0.5865138 0.5493211 -0.9006274 -0.41334534 -0.69043165 0.16474757 -0.77185047
0.4991107 -0.15530667 0.32997167 -0.08532174 -0.34938243 -0.77967024 -1.2301793 0.07026038
-0.00010667575 0.50381553 -0.41052946 0.39709777 -0.021492707 0.10332871 -0.0061027585 0.8152806
0.2696862 0.57628363 0.3797958 -0.4157201 0.47390732 0.59076804 0.88575804 -0.092573695
-0.4261813 0.1165591 0.24802005 0.3718831 0.18311968 -0.11873092 0.33754072 0.381792
-0.16065842 0.28635117 0.27718878 0.042131178 0.1849792 0.47331008 -0.2195078 -0.7960535
0.34098297 0.5081788 -0.024688635 -0.2807137 0.60016537 -0.76716536 0.8043544 -0.8130686
-0.15973076 0.008778773 -0.33407623 -0.057750076 0.038646556 0.19172964 0.06969252 0.027775131
-0.19355649 -0.64364177 -0.26850894 0.54536664 0.24817303 -0.3468261 0.63756466 -0.09703812
-0.12764437 0.90156543 0.44571263 0.72766584 -0.4160953 0.0106449695 0.6830023 -0.518636
0.61687905 0.40207994 0.2609755 0.6053102 0.20374991 0.00080507377 -0.6501416 0.059465673
-0.1354864 0.00050812686 0.14686851 -0.33340308 0.53120023 -0.44103366 -0.04505741 -0.3343763
0.46178216 0.35187247 0.220316 0.14620931 -0.49984607 0.09599298 0.68020165 0.091342606
-0.50104606 -0.12781852 0.10268995 0.30954665 0.054011747 -0.3601767 0.044828776 0.31239206
-0.14661972 0.10550662 -0.17595641 -0.16975932 -0.4651755 0.39169356 0.44197008 0.3246068
0.45254767 -0.27898782 0.43415174 0.26143023 0.48916596 0.08805807 -0.3995969 -0.14657864
-0.85378116 0.29512823 -0.35883072 -0.07632764 -0.28930068 -0.14543073 0.105902724 0.38795176
-0.061670635 0.33196777 0.38253245 -0.15354176 -0.4434846 -0.20941032 0.05813014 0.40614668
-0.74424833 0.22141698 0.19003403 -0.046531506 0.32491374 -0.16187792 0.028859908 -0.63942426
0.031372182 0.24097227 -0.3248797 0.3779509 -0.4849259 -0.24732414 -0.0262021 0.23116943
-0.074040405 0.27132177 0.25319332 -0.62809366 0.09245062 -0.21838649 0.17219079 0.01179151
0.3876738 -0.18033485 -0.84841835 0.28713435 -0.112796 0.48199582 -0.2271855 0.44004905
0.112410285 -0.38794753 0.18781793 -0.5834764 -0.12198235 0.11101191 -0.25693288 -0.44530928
0.47058252 -0.006703996 -1.2195007 -0.8389597 -1.1145775 0.04474415 0.428043 0.65304613
-0.7736552 -0.106796704 0.19648059 -0.59669864 -0.41544572 0.17366672 -0.16133344 -0.08688914
0.045257006 0.44875628 -0.61544985 -0.0963154 0.27251709 -1.2724345 -0.25209466 0.3116905
-0.2650556 0.5409294 0.5050306 -0.81653965 0.9447749 -0.05861255 -0.1722422 0.43728024
0.28086686 0.051793046 -0.11756766 0.14913625 0.8699969 0.62469953 -0.1004882 0.45425293
00000000: 489d b23d 275c 44bd e73d 703e d2be a03e
00000010: d362 56bf 4102 413e b7dd 023f 897b 803e
00000020: 2d36 ccbe 0c3c 913d 7b1a f73e e261 d8be
00000030: d091 50bf 6262 2e3f 97e1 a0be 12bd fcbd
00000040: b27a 113f 1133 80be a1ea 093f e13d 113d
00000050: 36d3 00bf 0a0e 9d3e 7def abbf 946a 573d
00000060: 570c 543f e6c5 823c dc92 92be e1a7 ddbe
00000070: 4ad4 04be 2171 ad3e 6ef2 05bf 0199 91be
00000080: 37b7 5abe c525 163f 4fa0 0c3f 848f 66bf
00000090: 00a2 d3be 21c0 30bf 96b3 283e fe97 45bf
000000a0: 708b ff3e b608 1fbe 0cf2 a83e 2abd aebd
000000b0: 41e2 b2be 7898 47bf 8476 9dbf ade4 8f3d
000000c0: 1bb7 dfb8 0efa 003f eb30 d2be 6650 cb3e
000000d0: 7911 b0bc 019e d33d a6f9 c7bb 3bb6 503f
000000e0: 4f14 8a3e 5387 133f 9874 c23e 44d9 d4be
000000f0: fba3 f23e 933c 173f 0ac1 623f 4797 bdbd
00000100: 6f34 dabe 8ab6 ee3d f8f8 7d3e 7667 be3e
00000110: ba83 3b3e 3229 f3bd 23d2 ac3e 3e7a c33e
00000120: a483 24be 9f9c 923e b0eb 8d3e be91 2c3d
00000130: 306b 3d3e b355 f23e a7c6 60be 2aca 4bbf
00000140: 5295 ae3e 0118 023f d23f cabc b5b9 8fbe
00000150: 70a4 193f f364 44bf 2cea 4d3f 4425 50bf
00000160: 7690 23be d8d4 0f3c 0a0c abbe 588b 6cbd
00000170: da4b 1e3d c654 443e f4ba 8e3d ac88 e33c
00000180: ac33 46be b5c5 24bf 017a 89be 269d 0b3f
00000190: 1221 7e3e 3193 b1be 7037 233f ecbb c6bd
000001a0: 35b5 02be fecc 663f 7234 e43e 4f48 3a3f
000001b0: 710a d5be 3d68 2e3c 3dd9 2e3f 54c5 04bf
000001c0: c9eb 1d3f 6cdd cd3e 959e 853e 9cf5 1a3f
000001d0: d1a3 503e 960b 533a ae6f 26bf 4792 733d
000001e0: f2bc 0abe d133 053a b364 163e cfb3 aabe
000001f0: bdfc 073f 2acf e1be 1e8e 38bd 5f33 abbe
00000200: b66e ec3e a128 b43e 849a 613e e5b7 153e
00000210: d3eb ffbe f897 c43d b221 2e3f d511 bb3d
00000220: 8e44 00bf dce2 02be 1c4f d23d e67c 9e3e
00000230: 6c3b 5d3d 1569 b8be 619e 373d daf1 9f3e
00000240: 7b23 16be db13 d83d eb2d 34be 63d5 2dbe
00000250: 7c2b eebe 0f8c c83e e749 e23e dd32 a63e
00000260: 54b4 e73e 7ed7 8ebe 2349 de3e 2fda 853e
00000270: f673 fa3e ca57 b43d f797 ccbe b618 16be
00000280: 6791 5abf 0c1b 973e a9b8 b7be aa51 9cbd
00000290: 381f 94be cbeb 14be 87e3 d83d 9da1 c63e
000002a0: 599a 7cbd aef7 a93e 4bdb c33e 0d3a 1dbe
000002b0: 6a10 e3be a96f 56be df19 6e3d 75f2 cf3e
000002c0: 0f87 3ebf 22bb 623e 4898 423e d297 3ebd
000002d0: 185b a63e 53c3 25be 9d6b ec3c 4fb1 23bf
000002e0: 1e80 003d 6fc1 763e a256 a6be c882 c13e
000002f0: 3548 f8be 8a42 7dbe c9a5 d6bc aeb7 6c3e
00000300: 7fa2 97bd b0ea 8a3e 8ea2 813e bfca 20bf
00000310: c056 bd3d b5a0 5fbe c852 303e 2d31 413c
00000320: 2e7d c63e b3a9 38be f231 59bf 4603 933e
00000330: 9701 e7bd 28c8 f63e 51a3 68be 1c4e e13e
00000340: 5d37 e63d 0fa1 c6be 5853 403e b65e 15bf
00000350: e2d1 f9bd 365a e33d b58c 83be 94ff e3be
00000360: 31f0 f03e 32ad dbbb 9918 9cbf 10c6 56bf
00000370: 7aaa 8ebf a445 373d 7428 db3e 082e 273f
00000380: 440e 46bf 3bb8 dabd 3532 493e 3ec1 18bf
00000390: 4db5 d4be b0d5 313e 9834 25be eff2 b1bd
000003a0: 695f 393d 62c3 e53e 1f8e 1dbf 0241 c5bd
000003b0: 5c87 8b3e 22df a2bf 8d12 81be e695 9f3e
000003c0: 5eb5 87be 597a 0a3f af49 013f be08 51bf
000003d0: c5dc 713f b713 70bd 4260 30be 32e3 df3e
000003e0: c8cd 8f3e f224 543d 50c7 f0bd 2cb7 183e
000003f0: 1eb8 5e3f 4fec 1f3f c2cc cdbd d793 e83e

l2.bias f4 [96]
-0.27398634 0.015992077 -0.371296 -0.34738547 -0.023384335 -0.11656721 -0.043890912 -0.28169376
-0.64501506 -0.14187282 -0.30550066 -0.104670174 -0.16601124 -0.15269877 -0.05790446 -0.11571539
-0.4106366 -0.09302554 -0.32237354 -0.19078164 -0.24878064 -0.19971669 -0.30580848 -0.2106243
-0.19112848 -0.19539121 -0.30491495 -0.45326942 -0.32380372 -0.07371466 -0.18010414 -0.2677822
-0.37607405 -0.08248304 -0.47208953 -0.14438583 -0.4695105 -0.1168703 -0.32623342 -0.36319923
-0.28751078 -0.10702641 -0.16665207 -0.506205 -0.03803558 -0.27572748 -0.33835858 -0.38867956
0.18922938 -0.4890561 -0.41070434 -0.291192 -0.20604096 -0.5323136 -0.25071955 -0.36953548
-0.137164 -0.08925795 -0.19344822 -0.41215783 -0.17759545 -0.28863654 -0.42352447 -0.4009721
-0.41093704 -0.32107404 -0.3026627 -0.2390232 -0.26448748 0.047409166 -0.35062423 -0.20573786
-0.23676082 -0.50678885 -0.3281518 -0.42142388 -0.14219046 -0.23365518 -0.2641627 -0.27776355
-0.080044284 -0.4108837 -0.23428963 -0.4071561 -0.41574404 -0.12859583 -0.2978283 -0.16357894
-0.11742326 -0.21906224 -0.56782055 -0.3118474 -0.45001477 -0.07288337 -0.2516793 -0.34247172
00000000: f047 8cbe d101 833c 821a bebe 82dc b1be
00000010: 8190 bfbc caba eebd f5c6 33bd 2a3a 90be
00000020: b51f 25bf 1c47 11be 956a 9cbe 515d d6bd
00000030: dafe 29be 115d 1cbe 3a2d 6dbd 31fc ecbd
00000040: f63e d2be 2d84 bebd 250e a5be 435c 43be
00000050: 5ac0 7ebe 8882 4cbe ee92 9cbe e6ad 57be
00000060: 2fb7 43be a214 48be d01d 9cbe ee12 e8be
00000070: 9ac9 a5be b6f7 96bd 386d 38be c01a 89be
00000080: c78c c0be deec a8bd b8b5 f1be e1d9 13be
00000090: ae63 f0be b259 efbd 1108 a7be 40f5 b9be
000000a0: 9d34 93be aa30 dbbd d7a6 2abe a796 01bf
000000b0: 32cb 1bbd 272c 8dbe 563d adbe 0201 c7be
000000c0: 59c5 413e 9065 fabe d747 d2be 1e17 95be
000000d0: 67fc 52be b445 08bf 505e 80be c133 bdbe
000000e0: b874 0cbe dfcc b6bd 4a17 46be 5a06 d3be
000000f0: 95db 35be 2bc8 93be 33d8 d8be 374c cdbe
00000100: 5766 d2be d163 a4be 9bf6 9abe 7fc2 74be
00000110: e76a 87be 1d30 423d 0585 b3be f2ac 52be
00000120: 6e71 72be eabc 01bf 8303 a8be dfc4 d7be
00000130: 609a 11be 4e43 6fbe 5540 87be 0637 8ebe
00000140: 42ee a3bd 595f d2be 9fe9 6fbe c476 d0be
00000150: 67dc d4be a0ae 03be f37c 98be 3d81 27be
00000160: 9b7b f0bd da51 60be b05c 11bf 76aa 9fbe
00000170: 5668 e6be e043 95bd 1cdc 80be 7458 afbe

l3.weight f4 [113, 96]
-0.7016156 -9.536179 -0.15213503 0.42607054 -0.9585051 -0.6850282 -1.7184824 -0.24520376
-0.116540186 -0.13217534 0.43213275 -0.029881809 0.079530895 -0.09360341 -5.725957 0.058018073
0.28247303 -0.054938894 0.067376226 -0.009112065 0.22035092 0.2105694 -0.20428875 -0.5685262
-0.08736616 0.49752957 0.62371624 -0.11195835 -0.08307422 0.36455798 -0.77978647 -0.40645278
-0.38439265 -0.21526863 0.34902123 -0.06306617 -0.13629478 -0.059601665 -0.5098693 -0.8019141
-1.0743766 -0.07728063 0.06868397 -0.018143917 -0.17831221 -0.32878387 0.6238969 -0.20476499
-7.602273 -0.2948487 0.0005990595 -0.37735462 0.0438603 -0.770936 -1.0475326 -0.6581712
-0.13446075 0.08646697 0.02156155 0.26300636 0.24620074 -0.40331587 -0.7115866 -0.08133212
-0.18260507 -0.24265388 0.33755174 -0.72836757 0.14275987 -1.9707756 0.3211192 0.37010327
0.46001613 -0.17472844 -0.21456298 0.09645028 -0.11221978 -0.48381895 0.20508482 -0.40729225
0.04546443 -4.2103524 0.034481008 0.035798512 -0.5249713 -0.64822876 0.40406394 -0.750762
0.11494804 0.26869342 -0.25482792 -1.2197775 -0.7030368 -0.49129274 0.083318986 0.24862094
-0.8247512 -3.7515883 -0.9688893 0.15914668 0.10816506 -0.43261996 -1.1389098 0.24624033
-0.40435693 -0.10491997 0.08934987 -0.082993835 0.11850821 -0.0802525 -2.817613 -0.49377343
-0.40657234 0.01307362 0.2110997 0.0661398 0.22985864 -0.3449722 -0.12870641 -0.18087846
-0.029013649 -0.0124695655 -0.7712431 0.3370248 -0.2034143 -0.31543458 -0.24225096 -0.97229385
-0.45244226 -0.1659201 0.26568976 0.004631527 -0.4423729 0.04433781 -0.5608352 -0.67239994
-0.64147 0.01909672 0.22084084 -0.16841123 -0.08189148 -0.8285622 0.058502108 -0.66805214
-6.025454 0.061693694 -0.56390303 -0.27393195 -0.051145643 -0.7733343 -0.5860172 -0.12926304
0.12836157 -0.17657599 0.028151851 0.29389113 -0.61200535 -0.38255227 -0.8384783 -0.15625918
-0.24526766 -0.4802247 -0.029993508 -0.087082975 -0.7951521 -1.9398528 -0.44549954 -0.5841267
0.079371065 -0.8356694 -0.00044926364 0.30043742 0.023049477 -0.21488155 0.06388318 0.072495185
0.20722656 -4.347562 0.19313025 0.20123807 0.07004408 0.18096468 -1.1636288 0.20305206
0.0030033272 -0.6938661 -0.3211736 -1.2690437 -0.51522386 -0.277239 0.2822196 -0.011884468
-1.2866008 -12.152384 -0.662278 -0.025736313 -0.18698882 -0.111407645 -0.8100235 -0.116004474
-0.046733074 0.019690014 0.24732763 -0.005842862 -0.30762476 0.12951297 -10.770968 -0.3768888
-0.89085746 0.09455475 0.16204526 -0.8271794 0.32006422 0.042820156 -1.1501307 -0.21557662
-0.09838479 -0.6653828 -1.5197383 0.3442746 0.17334387 -0.12728357 -0.16720441 -0.63569856
-0.6110825 0.52064705 0.33429098 0.020627454 -0.05316479 0.07875761 -1.2605556 -0.18816757
-1.7076786 0.03172533 -0.034672115 -0.14314185 -0.13937987 0.2806236 -0.49789155 -0.32552186
-5.7700315 -0.9463304 -0.0943566 0.24957937 0.23098107 -1.9307181 -0.8971533 -0.063247465
0.33306673 0.0031639016 0.04986918 0.17845385 -0.2849356 -0.1420204 0.073684156 -0.035570722
00000000: 149d 33bf 3094 18c1 49c9 1bbe eb25 da3e
00000010: 9760 75bf 025e 2fbf 3bf7 dbbf b216 7bbe
00000020: 9fac eebd f958 07be 8140 dd3e b2ca f4bc
00000030: 18e1 a23d 25b3 bfbd 0a3b b7c0 5ca4 6d3d
00000040: 4ea0 903e 9b07 61bd 8cfc 893d c54a 15bc
00000050: aca3 613e 819f 573e 1231 51be ef8a 11bf
00000060: 07ed b2bd 32bc fe3e deab 1f3f 6b4a e5bd
00000070: d122 aabd 58a7 ba3e 16a0 47bf 941a d0be
00000080: 1dcf c4be 616f 5cbe e9b2 b23e d628 81bd
00000090: dc90 0bbe e020 74bd cb86 02bf 3e4a 4dbf
000000a0: 2c85 89bf 4f45 9ebd 2eaa 8c3d 8da2 94bc
000000b0: 7a97 36be 5c56 a8be b5b7 1f3f eaad 51be
000000c0: d245 f3c0 69f6 96be 340a 1d3a a034 c1be
000000d0: dca6 333d 105c 45bf 8c15 86bf e87d 28bf
000000e0: 14b0 09be 9815 b13d d9a1 b03c c5a8 863e
000000f0: 0c1c 7c3e 6b7f cebe 8a2a 36bf 7491 a6bd
00000100: d3fc 3abe 427a 78be 95d3 ac3e 4c76 3abf
00000110: a52f 123e 6042 fcbf bc69 a43e 2d7e bd3e
00000120: 3c87 eb3e 03ec 32be 66b6 5bbe b987 c53d
00000130: 7cd3 e5bd 1eb7 f7be c101 523e 9c88 d0be
00000140: e938 3a3d 35bb 86c0 f53b 0d3d 76a1 123d
00000150: 8564 06bf 52f2 25bf 78e1 ce3e f031 40bf
00000160: e169 eb3d 2f92 893e ce78 82be ab21 9cbf
00000170: 38fa 33bf b98a fbbe 25a3 aa3d 7d96 7e3e
00000180: e522 53bf 061a 70c0 2109 78bf 59f7 223e
00000190: a585 dd3d 5d80 ddbe ccc7 91bf 6d26 7c3e
000001a0: df07 cfbe 48e0 d6bd 11fd b63d acf8 a9bd
000001b0: 6fb4 f23d 6c5b a4bd c553 34c0 dfcf fcbe
000001c0: 402a d0be bd32 563c 852a 583e 4e74 873d
000001d0: 1060 6b3e 32a0 b0be 9dcb 03be 3438 39be
000001e0: 08ae edbc 264d 4cbc 3070 45bf 848e ac3e
000001f0: d74b 50be a480 a1be a310 78be 40e8 78bf
00000200: 83a6 e7be f5e6 29be 7d08 883e 10c4 973b
00000210: b37e e2be 909b 353d e592 0fbf 6722 2cbf
00000220: 6137 24bf b970 9c3c 1a24 623e fe73 2cbe
00000230: b8b6 a7bd a71c 54bf e89f 6f3d 7705 2bbf
00000240: 85d0 c0c0 87b2 7c3d f35b 10bf cf40 8cbe
00000250: 187e 51bd 3df9 45bf 3905 16bf 885d 04be
00000260: 3771 033e 56d0 34be b69e e63c e678 963e
00000270: 62ac 1cbf e4dd c3be 84a6 56bf 6802 20be
00000280: 7227 7bbe 03e0 f5be f2b4 f5bc 8f58 b2bd
00000290: 178f 4bbf 194d f8bf 8418 e4be 5489 15bf
000002a0: 4c8d a23d 6eee 55bf 258b ebb9 efd2 993e
000002b0: 42d2 bc3c e909 5cbe 2fd5 823d 5b78 943d
000002c0: 3333 543e 3a1f 8bc0 f0c3 453e 5a11 4e3e
000002d0: 4573 8f3d ce4e 393e caf1 94bf e1ec 4f3e
000002e0: 78d3 443b 35a1 31bf de70 a4be 0670 a2bf
000002f0: b6e5 03bf 45f2 8dbe 167f 903e 12b7 42bc
00000300: 56af a4bf 2a70 42c1 0d8b 29bf f6d4 d2bc
00000310: ff79 3fbe b129 e4bd b35d 4fbf c193 edbd
00000320: 2e6b 3fbd f44c a13c 7443 7d3e 7b75 bfbb
00000330: fe80 9dbe 0c9f 043e e355 2cc1 92f7 c0be
00000340: 3c0f 64bf eca5 c13d 31ef 253e 07c2 53bf
00000350: 75df a33e 3064 2f3d 7c37 93bf 1ec0 5cbe
00000360: f77d c9bd 8756 2abf c986 c2bf c344 b03e
00000370: 0e81 313e a056 02be a237 2bbe 24bd 22bf
00000380: e76f 1cbf 2049 053f 3028 ab3e e8fa a83c
00000390: 53c3 59bd ab4b a13d e359 a1bf 00af 40be
000003a0: 3695 dabf 6bf2 013d 5904 0ebd c793 12be
000003b0: 99b9 0ebe e6ad 8f3e a4eb febe cdaa a6be
000003c0: 19a4 b8c0 b642 72bf 083e c1bd bc91 7f3e
000003d0: 4d86 6c3e c521 f7bf d7ab 65bf e387 81bd
000003e0: b987 aa3e 7659 4f3b a043 4c3d 9bbc 363e
000003f0: 14e3 91be cc6d 11be b8e7 963d 9bb2 11bd

l3.bias f4 [113]
-16.414225 -17.135895 -15.465435 -17.203123 -16.575148 -16.000355 -17.067049 -16.572369
-16.805601 -16.885647 -14.04787 -17.138374 -16.120901 -17.071953 -15.466756 -16.419722
-16.884785 -16.536991 -16.336138 -16.663643 -16.975588 -17.282818 -16.185568 -17.395254
-17.16287 0.8558138 -16.787811 -17.002195 -17.112852 -0.7523873 -17.103329 -16.030043
-17.205402 -17.224072 -17.188593 -16.819098 0.82552606 -16.500355 -16.789444 -15.354516
-17.01493 -16.472664 -17.14677 -15.636807 -17.00319 -16.792711 -16.30973 -16.627659
-15.686687 -16.331465 -15.94582 -16.900005 -16.316532 -16.38858 -16.977278 -16.762823
-16.781471 -15.947179 -16.927452 -15.9991 -16.713915 -16.902203 -16.690239 -16.935127
-16.217709 -16.77193 -16.517962 -16.76001 -16.0057 -16.481382 -16.331423 -16.064661
-15.465666 -16.666946 -16.477861 -17.029531 -16.492083 -14.545355 -16.216286 -15.344592
-16.090754 -16.28079 -15.551031 -16.588417 -17.079306 -17.085321 -15.643695 -16.768066
-14.889922 -17.02971 -16.942223 -16.066229 -17.084137 -16.737509 -16.756763 -15.142515
-17.001816 -16.95092 -0.75230926 -16.947765 -16.40473 -16.841024 -16.230867 -16.398888
-15.779521 -16.450676 -16.824232 -16.158316 -16.88751 -16.408577 -16.665676 -14.692787
-16.33338
00000000: 5550 83c1 5016 89c1 6c72 77c1 ff9f 89c1
00000010: e799 84c1 ba00 80c1 5189 88c1 3694 84c1
00000020: df71 86c1 ce15 87c1 13c4 60c1 641b 89c1
00000030: 9bf7 80c1 5c93 88c1 d577 77c1 975b 83c1
00000040: 0a14 87c1 c24b 84c1 69b0 82c1 244f 85c1
00000050: 01ce 87c1 3643 8ac1 0b7c 81c1 7b29 8bc1
00000060: 8f4d 89c1 9d16 5b3f 704d 86c1 7f04 88c1
00000070: 1fe7 88c1 749c 40bf 9ed3 88c1 873d 80c1
00000080: aaa4 89c1 e6ca 89c1 3d82 89c1 838d 86c1
00000090: ad55 533f ba00 84c1 c850 86c1 19ac 75c1
000000a0: 941e 88c1 04c8 83c1 962c 89c1 5d30 7ac1
000000b0: 8806 88c1 7957 86c1 547a 82c1 7205 85c1
000000c0: acfc 7ac1 d7a6 82c1 1422 7fc1 3633 87c1
000000d0: 4288 82c1 d01b 83c1 77d1 87c1 431a 86c1
000000e0: 7440 86c1 a527 7fc1 6c6b 87c1 50fc 7fc1
000000f0: 19b6 85c1 b637 87c1 9c85 85c1 247b 87c1
00000100: debd 81c1 ea2c 86c1 c924 84c1 8014 86c1
00000110: ac0b 80c1 dfd9 83c1 c1a6 82c1 6d84 80c1
00000120: 5e73 77c1 e855 85c1 a9d2 83c1 7b3c 88c1
00000130: c9ef 83c1 c6b9 68c1 f4ba 81c1 7383 75c1
00000140: ddb9 80c1 0f3f 82c1 06d1 78c1 14b5 84c1
00000150: 6ba2 88c1 bdae 88c1 934c 7ac1 0025 86c1
00000160: 1f3d 6ec1 d93c 88c1 ac89 87c1 a387 80c1
00000170: 50ac 88c1 6be6 85c1 da0d 86c1 be47 72c1
00000180: b803 88c1 7c9b 87c1 5797 40bf 0695 87c1
00000190: e33c 83c1 6bba 86c1 d1d8 81c1 ec30 83c1
000001a0: eb78 7cc1 fc9a 83c1 0798 86c1 3b44 81c1
000001b0: 9f19 87c1 c444 83c1 4e53 85c1 a815 6bc1
000001c0: c3aa 82c1
