Server/long_term_memory/taskdata.pth (torch, 41983 bytes, 5 tensors)

l1.weight f4 [96, 4]
0	0x3e0bf780	0.13668633
1	0xbe3d1508	-0.18465054
2	0x3e985f4c	0.29760206
3	0xbe629530	-0.22127223
4	0xbd46af50	-0.048507035
5	0xbeae8766	-0.34087676
6	0x3e3118cc	0.17294616
7	0xbdcc8028	-0.09985381
8	0xbeda2e64	-0.42613518
9	0xbef1f79c	-0.47259223
10	0xbef74f30	-0.48302603
11	0x3e5b9c64	0.21446377
12	0xbe59db90	-0.21275163
13	0x3e9ca558	0.30594897
14	0xbed1416e	-0.4087023
15	0xbd93aaf8	-0.07210344
16	0x3d204cc0	0.039135695
17	0x3d3d1cb0	0.046169937
18	0x3eaee2a4	0.34157288
19	0x3e8921ca	0.26783592
20	0xbe64412c	-0.22290486
21	0xbed4b046	-0.41540736
22	0xbef3b4aa	-0.47598773
23	0x3e826d6e	0.25474113
24	0x3eefd434	0.46841586
25	0x3efda2c4	0.49538243
26	0x3ebe84a2	0.37210566
27	0xbe77a398	-0.241835
28	0xbde05130	-0.10952985
29	0xbe448600	-0.19191742
30	0xbe730bfc	-0.2373504
31	0x3eb88288	0.36037087
32	0x3e57b5e4	0.2106548
33	0x3e811804	0.25213635
34	0xbe967e2c	-0.29393137
35	0x3c735600	0.014852047
36	0x3e47b7a8	0.19503653
37	0xbecbdcde	-0.39816946
38	0xbed4ff7a	-0.41601163
39	0xbecd32c4	-0.40077794
40	0x3ebd7212	0.3700109
41	0xbe76b32c	-0.24091786
42	0x3e0de6c8	0.13857567
43	0xbeedff2c	-0.46483743
44	0x3e9ae0fe	0.3024978
45	0xbec59734	-0.3859192
46	0xbe4e4e10	-0.20146966
47	0x3ef350a2	0.47522455
48	0x3e0489dc	0.12943214
49	0x3e8b5f70	0.2722125
50	0xbef711f2	-0.4825588
51	0xbc8f06e0	-0.017459333
52	0xbee35da6	-0.44407386
53	0xbd79fbe0	-0.061031222
54	0x3ee0776a	0.43841106
55	0xbd1267f0	-0.035743654
56	0xbe879d10	-0.26487017
57	0xbe42e114	-0.19031173
58	0xbe739168	-0.23785937
59	0xbe85ff22	-0.26171213
60	0xbe27e3a4	-0.16395432
61	0xbe105e30	-0.1409843
62	0x3ed7f328	0.421777
63	0x3e1f9664	0.15584713
64	0x3bc1c900	0.0059138536
65	0x3cf49c60	0.029859722
66	0x3df96560	0.12177539
67	0xbee9fedc	-0.45702255
68	0x3e5ee848	0.21768296
69	0xbe15fcb4	-0.1464718
70	0x3e042c18	0.12907445
71	0xbe525280	-0.20539284
72	0x3ed24d72	0.4107471
73	0xbecc3f76	-0.39892167
74	0xbea5a3c2	-0.323515
75	0xbed665fe	-0.4187469
76	0xbe09d780	-0.13461113
77	0x3e88db10	0.2672963
78	0x3d4f5b80	0.05062437
79	0x3eebef70	0.46081114
80	0xbe97b3b6	-0.29629296
81	0xbead123e	-0.3380298
82	0x3ea06d4a	0.3133338
83	0x3e4edad4	0.20200664
84	0xbee76256	-0.45192212
85	0xbe5b4204	-0.21411902
86	0xbd8cc270	-0.068730235
87	0xbd430800	-0.04761505
88	0xbe47f978	-0.19528759
89	0x3cfc4b60	0.03079766
90	0xbce94520	-0.028475344
91	0x3da426f8	0.08015245
92	0xbe4ad720	-0.19808626
93	0xbe4e7f7c	-0.20165819
94	0x3e6cfc74	0.23143178
95	0xbedb86be	-0.42876238
96	0xbeb1511a	-0.34632188
97	0xbeb88486	-0.36038607
98	0x3e6526c4	0.22378069
99	0x3ed18e6e	0.40928978
100	0xbef4e858	-0.47833514
101	0xbea07078	-0.31335807
102	0x3d6081a0	0.05481112
103	0x3ef1cbf6	0.47225922
104	0xbe4f4dd0	-0.20244527
105	0xbbdf1b00	-0.0068086386
106	0xbeafb0f4	-0.34314692
107	0x3d80ab40	0.06282663
108	0x3e92237e	0.28542703
109	0xbee53618	-0.44767833
110	0x3eb32b64	0.34994042
111	0x3df3e130	0.119081855
112	0x3ef3870c	0.4756397
113	0x3e8d5a24	0.27607834
114	0xbe8e6fea	-0.2781976
115	0xbea02980	-0.31281662
116	0x3d956da8	0.07296306
117	0x3ef76c7c	0.48324955
118	0x3ebf666e	0.37382835
119	0xbea2b122	-0.31775767
120	0x3d00d060	0.031448722
121	0x3e1e73f8	0.15473926
122	0x3ec1d4c0	0.37857628
123	0x3ea4af7a	0.32165128
124	0x3ecb5fa8	0.39721417
125	0x3ed1cb7e	0.40975565
126	0xb5400000	-7.1525574e-07
127	0x3e683c9c	0.2267937
128	0x3bf36a00	0.0074284077
129	0xbea626e0	-0.32451534
130	0x3e4e6214	0.20154601
131	0x3ec94e58	0.39317584
132	0xbe81c3a4	-0.25344574
133	0xbee1a83e	-0.4407367
134	0x3eb6ec6e	0.35727257
135	0xbe7e597c	-0.24838823
136	0x3ed069c6	0.407057
137	0x3e166100	0.1468544
138	0x3e8e3382	0.27773672
139	0xbe575adc	-0.21030754
140	0xbeeb222e	-0.45924515
141	0x3e57b310	0.210644
142	0x3e1fa60c	0.15590686
143	0x3e9ad57c	0.30241
144	0xbee02f88	-0.43786263
145	0xbea3fec4	-0.32030308
146	0xbd16cd70	-0.036817014
147	0x3ead5a82	0.33858114
148	0x3ecd14ca	0.40054923
149	0xbeffc1ca	-0.49952537
150	0xbeb6832e	-0.35646957
151	0xbe06add0	-0.13152242
152	0x3eeb98f2	0.46015126
153	0x3da24e60	0.07925105
154	0x3e04d2a4	0.12970978
155	0x3ef1a8b8	0.47199035
156	0x3e86459e	0.2622499
157	0xbed27b36	-0.41109627
158	0x3efd74ac	0.49503076
159	0xbe9e323e	-0.30897707
160	0x3ee28110	0.44239092
161	0x3e185fac	0.14880246
162	0xbdd4cf70	-0.10391128
163	0x3eac4cec	0.33652437
164	0x3e69ba40	0.22824955
165	0x3e935c0c	0.28781164
166	0xbeb43d9e	-0.3520326
167	0xbdb6a6f0	-0.089185596
168	0x3eb9448c	0.3618511
169	0x3d250e10	0.040296614
170	0xbe98e168	-0.2985947
171	0x3e2d53c4	0.16926485
172	0x3ed835d8	0.4222858
173	0x3eb47136	0.35242623
174	0x3ed68c04	0.41903698
175	0xbd903e20	-0.070430994
176	0xbede4188	-0.4340937
177	0xbd233d00	-0.039853096
178	0xbe5927d0	-0.21206594
179	0x3d7cb360	0.061694503
180	0x3e593334	0.21210939
181	0xbe988f18	-0.29796672
182	0xbd9667a8	-0.073439896
183	0x3e41266c	0.18862313
184	0xbea4fd90	-0.32224703
185	0x3ea18770	0.31548643
186	0x3e3612d0	0.17780614
187	0xbd38c290	-0.045107424
188	0xbe85120e	-0.25990337
189	0x3e6ce6c0	0.23134899
190	0x3ddb1640	0.10697603
191	0x3ef61a3c	0.4806689
192	0x3e6ac780	0.22927666
193	0xbe4c2fec	-0.19940156
194	0xbeec2e98	-0.46129298
195	0x3e64f0e0	0.22357512
196	0xbec05e64	-0.37572014
197	0xbef9c5ea	-0.4878381
198	0x3e51e370	0.20496917
199	0x3e9d6040	0.30737495
200	0x3e2a1e2c	0.16613072
201	0x3dce9220	0.10086465
202	0x3e797f80	0.24365044
203	0x3eb58baa	0.35458118
204	0xbe19a820	-0.15005541
205	0xbefc64b6	-0.49295586
206	0x3e92dfbc	0.2868632
207	0xbecd0972	-0.4004627
208	0x3e539e6c	0.20665902
209	0x3ccffa40	0.025387883
210	0x3efee968	0.4978745
211	0xbe9d9f00	-0.3078537
212	0x3edbb54c	0.42911756
213	0x3edea512	0.43485314
214	0xbdd72dd0	-0.10506785
215	0xbdc0e698	-0.09418982
216	0x3e854d9e	0.2603578
217	0xbeb1b490	-0.3470807
218	0xbc8e6920	-0.017384112
219	0x3ebe575a	0.3717602
220	0xbde9c1e0	-0.11413932
221	0xbee47da4	-0.44627106
222	0xbe43132c	-0.19050282
223	0x3e6d68cc	0.23184508
224	0x3ec82f6e	0.39098686
225	0x3efdcb06	0.49568957
226	0x3d81f698	0.06345862
227	0xbe2378c8	-0.15964043
228	0x3e790988	0.24320042
229	0x3eaafd54	0.333964
230	0x3e9d5472	0.3072849
231	0xbd536f40	-0.05161977
232	0xbed00fdc	-0.406371
233	0xbd850978	-0.06495947
234	0x3e2d6d98	0.16936338
235	0xbe9e2104	-0.30884564
236	0x3e03e3b0	0.12879825
237	0x3ed1079e	0.40826124
238	0x3dfa8388	0.12232119
239	0x3e9f389e	0.31097883
240	0x3eedba86	0.4643137
241	0x3e3113e8	0.1729275
242	0xbda40630	-0.08008993
243	0x3ee4bcae	0.446752
244	0xbe067b74	-0.13133031
245	0xbde63630	-0.11240804
246	0x3ed9eb78	0.4256246
247	0x3d8b7ca0	0.0681088
248	0x3e21f508	0.15816128
249	0x3e83f048	0.25769258
250	0xbe3475d8	-0.17623079
251	0x3ee8a588	0.4543879
252	0xbef3ab94	-0.4759184
253	0xbeff0322	-0.49807078
254	0xbe79abd4	-0.24381953
255	0xbee14cd8	-0.4400394

l1.bias f4 [96]
0	0xbee42d6a	-0.44565898
1	0x3d7fff70	0.062499464
2	0xbe1a3a84	-0.15061384
3	0xbec01ee6	-0.37523574
4	0x3ea4bd12	0.321755
5	0x3e01e758	0.12685907
6	0xbe12b434	-0.14326555
7	0x3c9366a0	0.017993271
8	0x3e912c28	0.28354
9	0xbe9864b0	-0.29764318
10	0xbee441e8	-0.44581532
11	0xbec139e8	-0.3773949
12	0x3e32d480	0.17463875
13	0xbe0a51b4	-0.1350773
14	0xbe9e02e8	-0.30861592
15	0xbec14c6a	-0.37753612
16	0x3e8834cc	0.2660278
17	0xbebb65e4	-0.36601174
18	0x3c48a3c0	0.012246072
19	0xbeebb5e6	-0.46037215
20	0xbe7c30f0	-0.24628043
21	0x3ef74132	0.48291928
22	0x3dd30d18	0.10305232
23	0xbe53dd14	-0.20689803
24	0xbbce6300	-0.006298423
25	0xbd2318d0	-0.039818585
26	0xbee276aa	-0.44231158
27	0x3e7798b8	0.24179351
28	0xbdfaafa8	-0.12240535
29	0x3e17e9a8	0.14835227
30	0xbc1dd100	-0.009632349
31	0xbe5e3c3c	-0.21702665
32	0x3e2a4694	0.16628486
33	0xbd90e720	-0.070753336
34	0x3ee0a8d2	0.438788
35	0x382e8000	4.1604042e-05
36	0xbe58f190	-0.21185899
37	0x3d57f550	0.052724183
38	0x3e8e4516	0.27787083
39	0xbe54e5e0	-0.20790815
40	0x3ee75024	0.4517833
41	0xbd9c8ac8	-0.07643658
42	0x3efc4f88	0.49279428
43	0x3b11a300	0.00222224
44	0xbe60c210	-0.21949029
45	0xbe847c00	-0.25875854
46	0x3ecf780a	0.4052127
47	0x3e77568c	0.24154109
48	0x3d85cb08	0.06532866
49	0x3daf67d8	0.085647285
50	0x3ecd96fa	0.40154248
51	0x3eafe05e	0.34350866
52	0x3ebf0dda	0.37315255
53	0x3eab6e66	0.33482665
54	0xbe8add6a	-0.2712205
55	0xbeff1640	-0.49821663
56	0x3efe357a	0.49650174
57	0x3c883920	0.016628802
58	0x3e8238d0	0.2543397
59	0xbdb57880	-0.08860874
60	0xbe6d7fc0	-0.23193264
61	0xbdc41958	-0.095751464
62	0x3c815fc0	0.015792727
63	0x3e536e44	0.20647532
64	0x3e62ed04	0.22160727
65	0x3eb84038	0.35986495
66	0x3e6a8f8c	0.22906321
67	0xbddd1878	-0.10795683
68	0x3e375194	0.17902213
69	0xbea5819e	-0.32325453
70	0xbc777580	-0.015103698
71	0xbe20a0a4	-0.1568628
72	0xbd680f10	-0.05665499
73	0xbefebe22	-0.49754435
74	0xbe6dc924	-0.2322126
75	0xbe8853aa	-0.2662633
76	0xbea13086	-0.31482333
77	0x3e268b60	0.16264105
78	0x3e399ec0	0.18126965
79	0xbe535ac0	-0.20640087
80	0xbbe3c100	-0.0069504976
81	0xbe5faff4	-0.21844465
82	0x3c6446c0	0.013932884
83	0xbe7be1c0	-0.24597836
84	0x3d40db70	0.047084272
85	0x3eeebbf4	0.46627772
86	0xbec3adc0	-0.38218498
87	0x3e2cbea8	0.16869605
88	0x3d06dd20	0.032925725
89	0x3e3a214c	0.18176764
90	0x3e7597a0	0.23983622
91	0xbec776d8	-0.38957858
92	0xbe981868	-0.2970612
93	0x3efddd7a	0.49583036
94	0xbe118e14	-0.14214355
95	0x3ecb2fb2	0.39684826

l2.weight f4 [96, 96]
0	0xbcc08fb4	-0.023506023
1	0xbdc3b38e	-0.09555732
2	0x3dc5bbcb	0.09654959
3	0x3dc5d04d	0.09658871
4	0xbd8b3834	-0.06797829
5	0xbc3d72ee	-0.011563046
6	0xbc1ed4b7	-0.00969427
7	0xbc4573ed	-0.012051565
8	0xbd9e4407	-0.07727819
9	0xbd8dcd4d	-0.06923924
10	0xbd5eb6ea	-0.05437366
11	0x3dbd14b3	0.09232464
12	0x3d030617	0.03198823
13	0xbd118838	-0.0355303
14	0xbc61e1df	-0.013786762
15	0x3d434c90	0.047680438
16	0xbc7b6e9f	-0.015346198
17	0x3d859ec8	0.06524426
18	0x3d87aa90	0.06624329
19	0x3d80c178	0.06286901
20	0xbd9c1cfc	-0.07622716
21	0x3d7789a1	0.060433988
22	0x3c4def18	0.012569211
23	0x3cb1e73d	0.021716708
24	0xbdaa7904	-0.08323863
25	0xbc63eaf3	-0.013910997
26	0xbd82dd44	-0.06389859
27	0xbd8f53dd	-0.069984175
28	0xbd8fe9ca	-0.070270136
29	0xbd0452ea	-0.032305636
30	0x3c35ca1d	0.011095551
31	0x3b822a3f	0.0039723213
32	0xbd9bd10e	-0.076082334
33	0xbc47e0b8	-0.012199573
34	0x3c63822f	0.013886019
35	0x3db1fc5d	0.086907126
36	0x3d68f57d	0.05687474
37	0xbd6aa094	-0.057282045
38	0xbd965da5	-0.0734208
39	0x3db65fbe	0.0890498
40	0x3d2e55cb	0.042562287
41	0x3d562b1f	0.052287217
42	0x3d571c79	0.052517388
43	0x3cbef338	0.023309335
44	0x3cb1568a	0.02164771
45	0xbd0850c6	-0.033280157
46	0xbd6ec6ba	-0.05829499
47	0x3c7bbbe2	0.015364619
48	0x3ba957fd	0.0051679597
49	0xbd3cba01	-0.046075825
50	0xbd9ee235	-0.07757989
51	0x3ce46982	0.027882341
52	0xbd433422	-0.04765714
53	0x3d1d81d5	0.038453896
54	0xbd014964	-0.03156413
55	0xbd508740	-0.050910234
56	0xbd2cf189	-0.042222533
57	0xbc9c5079	-0.019081341
58	0xbd43fe44	-0.04784991
59	0x3da2bd1c	0.07946226
60	0xbdcd39f6	-0.10020821
61	0xbd83185d	-0.06401131
62	0x3d289ae5	0.041163344
63	0xbb318dc1	-0.0027092549
64	0x3d93e0d0	0.07220614
65	0x3d40052a	0.046879925
66	0xbdc16fd1	-0.094451554
67	0xbd461d29	-0.048367653
68	0x3d6f6469	0.058445368
69	0xbd4ce655	-0.05002435
70	0xbd90b884	-0.070664436
71	0xbd20b485	-0.039234657
72	0x3da227ce	0.079177484
73	0xbd52dd66	-0.051480673
74	0x3b0411e6	0.002015227
75	0xbc9f7bbd	-0.019468183
76	0x3d8136cc	0.0630928
77	0xbd4c1fa5	-0.049834866
78	0x3d654c71	0.055981103
79	0x3c4eb110	0.012615457
80	0xbd927493	-0.07151141
81	0x3c917ced	0.017759765
82	0x3da03d14	0.0782415
83	0x3d8eae8b	0.06966885
84	0x3d5dbf59	0.05413756
85	0xbd3dfd22	-0.046383984
86	0x3c2eb492	0.0106631685
87	0xbdca256f	-0.09870421
88	0xbc3c594a	-0.011495898
89	0x3d28f440	0.04124856
90	0xbd2959b0	-0.0413453
91	0xbd587b81	-0.052852158
92	0x3cff5039	0.031166183
93	0xbb39a2f6	-0.0028325892
94	0x3bfa22f9	0.0076335636
95	0x3d996a30	0.07490957
96	0xbcab88b1	-0.020939203
97	0x3d86ae20	0.065761805
98	0x3dc866b0	0.09785211
99	0xbda32607	-0.079662375
100	0xbd00e820	-0.03147137
101	0x3c5ac22d	0.013351959
102	0x3d59b40e	0.05315023
103	0x3d942f6d	0.07235608
104	0xbc843530	-0.016138643
105	0x3d48d2c6	0.049029134
106	0x3d41a451	0.047275845
107	0x3dba4421	0.09095026
108	0xbd821ef2	-0.063535586
109	0x3d906f3a	0.07052465
110	0xbcd0315a	-0.025414158
111	0xbce8b793	-0.028407848
112	0x3cc4c475	0.02401946
113	0xbdbfa159	-0.093569465
114	0x3d84715c	0.06466934
115	0xbcba656a	-0.022753436
116	0xbc049802	-0.008092882
117	0x3d65d950	0.05611545
118	0xbd978ebd	-0.07400272
119	0x3d4bf4fb	0.04979418
120	0xbdcaa425	-0.09894589
121	0x3cb7ecb5	0.022451738
122	0x3d94d9f4	0.07268134
123	0xbd46d568	-0.048543364
124	0x3db7c2fb	0.089727364
125	0x3d88745c	0.06662819
126	0xbd75f267	-0.060045626
127	0x3d717a6a	0.058954634
128	0xbce312a1	-0.027718844
129	0xbdc91ab5	-0.09819547
130	0x3d562b57	0.052287426
131	0x3dd03a5a	0.1016738
132	0xbcb19d4b	-0.021681448
133	0xbbabe410	-0.005245693
134	0x3b037fbf	0.0020065156
135	0xbd42cc48	-0.0475581
136	0xbd1a8430	-0.03772372
137	0x3d9ae52c	0.07563242
138	0x3c8b93ce	0.017038252
139	0x3bd00bc5	0.0063490593
140	0xbce080b0	-0.027405113
141	0xbd970b04	-0.07375148
142	0xbd813177	-0.06308263
143	0x3dad67e0	0.08467078
144	0xbdbfb6d5	-0.09361044
145	0xbc3b8f69	-0.011447766
146	0xbdb30bf5	-0.08742515
147	0x3d19df09	0.03756622
148	0xbbe16844	-0.0068788845
149	0x3d8aaa69	0.067707844
150	0x3dcebd28	0.100946724
151	0xbd892a56	-0.06697528
152	0x3d2864ea	0.041111864
153	0xbd7200a3	-0.05908264
154	0x3d399627	0.045309212
155	0xbdca980e	-0.098922834
156	0xbc6f4e0c	-0.01460601
157	0xbda27c29	-0.07933838
158	0x3dc50999	0.09620971
159	0x3db1d80c	0.08683786
160	0x3d8f4a68	0.06996614
161	0xbd05c365	-0.032657046
162	0x3c581fa6	0.013191139
163	0xbda1a89f	-0.0789349
164	0xbbaaa06d	-0.0052071125
165	0x3cfba666	0.030718993
166	0xbdcb3f4b	-0.099241816
167	0x3d80d9b1	0.06291521
168	0x3db80fe6	0.089874074
169	0x3db40acb	0.08791121
170	0xbd774501	-0.06036854
171	0xbdcd3827	-0.10020476
172	0xbd624759	-0.055243824
173	0xbd4512e1	-0.048113707
174	0x3d347145	0.044053335
175	0x3d2f0d0c	0.04273705
176	0xbd5e6d5a	-0.054303505
177	0x3b1e81d7	0.0024186277
178	0xbc52739c	-0.012844946
179	0xbd9eb91b	-0.0775015
180	0xbd152cab	-0.03641955
181	0xbd8af963	-0.06785848
182	0xbd1fb66a	-0.038992323
183	0x3da60d09	0.08107955
184	0x3d6a2172	0.057160802
185	0xbd98648f	-0.07441055
186	0x3d0cb12f	0.034348663
187	0xbd86bf1b	-0.06579419
188	0x3d3400fa	0.043946244
189	0xbdce13a5	-0.10062341
190	0x3db1996d	0.08671842
191	0xbc7c4ab8	-0.015398674
192	0x3c4be58f	0.012444868
193	0x3dc57285	0.096409835
194	0xbc1c4e5b	-0.009540166
195	0xbb78ddcd	-0.0037974
196	0x3d197b87	0.03747132
197	0xbc974eee	-0.018470254
198	0xbcf8335c	-0.030297928
199	0x3d8d7195	0.0690643
200	0xbd6d7afc	-0.057978615
201	0xbd8e5147	-0.06949096
202	0x3dbc6171	0.09198273
203	0xbd8bef06	-0.068326995
204	0xbd473cd2	-0.048641987
205	0x3db764a3	0.08954742
206	0x3d96af72	0.07357682
207	0xbdcb2398	-0.09918898
208	0xbd937c1c	-0.07201406
209	0xbda289fe	-0.07936476
210	0x3d9be408	0.07611853
211	0xbc964fc0	-0.018348575
212	0xbc1e0c5e	-0.009646503
213	0x3d499805	0.049217243
214	0x3cc06137	0.023483856
215	0x3d48afd8	0.048995823
216	0x3d0f2627	0.034948494
217	0x3d09c3ef	0.033634122
218	0xbd99066c	-0.07471928
219	0x3d95e309	0.07318694
220	0xbd4e6ddb	-0.050397735
221	0xbdcfec36	-0.101524755
222	0xbd376f2b	-0.044783752
223	0x3c38c52e	0.01127748
224	0xbd58bd38	-0.052914828
225	0x3cc131b3	0.023583269
226	0x3ccea19a	0.025223542
227	0x3d3c6ba2	0.046001084
228	0x3cacae60	0.021079242
229	0x3dcb36df	0.09922575
230	0x3dadd165	0.084872045
231	0x3b55a8b3	0.0032601773
232	0x3dac2220	0.08404946
233	0x3d7db0e5	0.061936278
234	0x3d767732	0.060172267
235	0xbd0818e1	-0.03322685
236	0xbd17e49e	-0.03708326
237	0x3c046866	0.008081531
238	0xbc19f6d8	-0.009397231
239	0xbc34a644	-0.011025969
240	0x3d6ae8e4	0.057351008
241	0xbc9669d4	-0.01836101
242	0x3db4d8b1	0.08830393
243	0xbd194146	-0.037415765
244	0x3d39b47d	0.045338143
245	0xbd6b0986	-0.05738213
246	0x3ba85e59	0.0051382002
247	0x3d8059c5	0.06267122
248	0xbcb4eaf4	-0.02208469
249	0x3d052973	0.032510232
250	0x3dc07318	0.093969524
251	0x3d8fed11	0.07027639
252	0xbd90fc28	-0.07079345
253	0xbc03d6db	-0.008046831
254	0x3da523e8	0.08063489
255	0x3d5ac778	0.053412884

l2.bias f4 [96]
0	0x3cda79d0	0.026669413
1	0xbb2ba8de	-0.0026193182
2	0xbda9c073	-0.0828866
3	0x3c8213cb	0.015878579
4	0xbdceb50d	-0.100931264
5	0x3d22abd1	0.03971464
6	0xbd7c8cb4	-0.061657622
7	0x3d0f0b91	0.03492314
8	0x3c2b9109	0.010471591
9	0x3da297b4	0.07939091
10	0x3d9a6955	0.07539622
11	0x3b43f525	0.0029900756
12	0xbce24449	-0.027620452
13	0xbdc4fdaa	-0.09618695
14	0x3d8bb02e	0.06820713
15	0x3d0b2d83	0.03397895
16	0xbdb1402d	-0.08654819
17	0xbd049a4b	-0.032373708
18	0xbc36d6ca	-0.011159608
19	0xbbc1c0d8	-0.0059128813
20	0x3db6665b	0.089062415
21	0xbd83b2e5	-0.06430606
22	0x3d3a08be	0.045418493
23	0xbd8bff07	-0.06835752
24	0xbd479a0e	-0.048730902
25	0xbd27cbb2	-0.040965743
26	0xbdb07683	-0.08616354
27	0xbdb41a3b	-0.087940656
28	0xbd904f83	-0.07046416
29	0xbcce5fb2	-0.025192115
30	0xbca68e59	-0.020331549
31	0xbc959062	-0.018257324
32	0xbd024f52	-0.031813927
33	0x3c9cf582	0.019160036
34	0x3d2734d6	0.040821873
35	0xbd0d2456	-0.03445848
36	0xbda11766	-0.07865791
37	0x3d16dbe2	0.03683079
38	0xbd4187c0	-0.047248602
39	0x3cddd8b9	0.02708088
40	0xbd2b52f5	-0.04182716
41	0xbd886cd0	-0.06661379
42	0xbda55e18	-0.080745876
43	0xbd6ec429	-0.05829254
44	0xbc10d537	-0.008839897
45	0x3d471730	0.048606098
46	0x3c1ab599	0.00944271
47	0xbd215875	-0.039391
48	0x3db4dbce	0.08830987
49	0xbd446549	-0.047948156
50	0xbd9d210d	-0.076723196
51	0x3d943b6d	0.07237897
52	0xbd6c51ce	-0.057695203
53	0x3da125fc	0.07868573
54	0xbc151e47	-0.009101457
55	0xbd096358	-0.033542007
56	0xbdbcc675	-0.0921754
57	0xbc795c0d	-0.0152197005
58	0xbd936f1b	-0.07198926
59	0x3c498347	0.012299365
60	0x3dbf6b46	0.09346633
61	0xbd8b0c4b	-0.06789454
62	0xbdc5e6f5	-0.09663192
63	0xbb693812	-0.00355864
64	0x3db5ddcc	0.08880195
65	0xbda2a1e7	-0.07941037
66	0xbd60fa5b	-0.054926258
67	0xbc1e9ae6	-0.009680485
68	0x3d46c78d	0.04853015
69	0xbd2549fe	-0.040353768
70	0x3dbee565	0.09321097
71	0xbd35156d	-0.044209886
72	0xbdcb05ef	-0.09913241
73	0xbd842cb6	-0.064538404
74	0x3d0b85c6	0.034063123
75	0xbba8d8ec	-0.005152812
76	0x3daf9977	0.08574193
77	0x3cf63520	0.030054629
78	0xbdc3b30f	-0.09555637
79	0xbd37c705	-0.044867534
80	0xbdbc9a9f	-0.09209179
81	0x3dbc38fb	0.09190556
82	0xbd207946	-0.039178155
83	0xbb0080a6	-0.001960793
84	0xbdcab842	-0.09898426
85	0xbd66fc1a	-0.056392767
86	0x3d2347db	0.03986345
87	0xbd492d43	-0.04911543
88	0x3d529357	0.051410045
89	0x3c8ddafd	0.017316336
90	0x3dcde526	0.10053472
91	0x3c6b5db9	0.014365607
92	0x3c04260f	0.0080657145
93	0xbb4315a1	-0.002976753
94	0x3a827d53	0.0009955562
95	0xbced064e	-0.02893367

l3.weight f4 [1, 96]
0	0xbc7d6159	-0.015465104
1	0xbdb00a9d	-0.08595774
2	0x3d8a1c40	0.067436695
3	0xbd53e949	-0.05173615
4	0xbcc797d2	-0.024364386
5	0xbd120f56	-0.035659157
6	0x3cab3bc4	0.020902522
7	0x3d858dfb	0.06521221
8	0x3dca67f7	0.09883111
9	0x3d96f5bb	0.07371088
10	0x3c6362da	0.0138785485
11	0xbd99fc84	-0.07518867
12	0xbc0ecefe	-0.008716343
13	0xbdab9a6a	-0.083790615
14	0x3ce32408	0.027727142
15	0xbb52f0d7	-0.0032187009
16	0xbdccc904	-0.09999278
17	0x3b423d0d	0.002963844
18	0x3d7c70a6	0.061630867
19	0xbdcd55bd	-0.10026119
20	0xbd1371a5	-0.03599705
21	0xbd971052	-0.0737616
22	0x3acc0679	0.0015565894
23	0x3c49eb3a	0.012324149
24	0x3db84579	0.08997626
25	0xbcd465b3	-0.0259274
26	0xbd401bfd	-0.04690169
27	0x3cf7e7c1	0.030261876
28	0x3d0f97ed	0.035056997
29	0xb798128f	-1.8128454e-05
30	0x3d5a1eed	0.05325215
31	0x3d018fa9	0.031631146
32	0xbd4f3699	-0.050589178
33	0x3c5e6d9b	0.013575937
34	0xbd1a89b6	-0.037728988
35	0xbd79c72e	-0.06098097
36	0xbd32c011	-0.0436402
37	0x3d8be074	0.068299204
38	0x3cca8101	0.024719717
39	0x3dbe76a8	0.09299976
40	0xbd4d0232	-0.05005092
41	0x3db30fdc	0.08743259
42	0x3d6f75f1	0.058462087
43	0xbd20347c	-0.039112553
44	0x3dc8ce2e	0.09804951
45	0x3d3634bb	0.04448388
46	0xbdcd2a68	-0.10017854
47	0x3d95d626	0.07316236
48	0xbcd41032	-0.025886629
49	0x3da4f36d	0.08054242
50	0xbd766e3e	-0.06016373
51	0xbd4b61a7	-0.049653675
52	0xbd0855fa	-0.03328512
53	0x3d3e2b9c	0.046428308
54	0xbd642350	-0.05569774
55	0x3c2ff89e	0.010740427
56	0x3c38fa82	0.0112901945
57	0xbc230134	-0.009949017
58	0x3dc77d08	0.09740645
59	0x3c487b17	0.012236378
60	0xbd4c65bc	-0.04990171
61	0xbb8b9b62	-0.0042604664
62	0xbd870cee	-0.06594263
63	0xbc905de1	-0.01762289
64	0xbdc77510	-0.09739125
65	0xbd0c09eb	-0.034189146
66	0xbc6ef20a	-0.014584074
67	0x3cdfe243	0.02732957
68	0x3db50373	0.088385485
69	0xbb901c13	-0.004397878
70	0xbaa5010b	-0.0012588812
71	0xbc7986b7	-0.015229872
72	0xbdb167c1	-0.086623676
73	0xbcd48f51	-0.025947245
74	0xb8b97f71	-8.845225e-05
75	0x3daf342e	0.08554874
76	0x3d949117	0.07254236
77	0x3d805fdb	0.06268283
78	0x3d6f60b9	0.05844185
79	0xbd87b359	-0.06626005
80	0xbcd50383	-0.026002651
81	0xbd79005d	-0.060791362
82	0x3da41a62	0.080128446
83	0xbcb9dc5f	-0.022688089
84	0x3d8c8655	0.06861559
85	0x3c21c8e5	0.009874557
86	0x3d8004d2	0.062509194
87	0x3d0e0122	0.03466905
88	0xbd2d5891	-0.04232079
89	0xbcdbfbc3	-0.026853448
90	0x3d61e01d	0.05514537
91	0x3dbc8879	0.092057176
92	0xbd2daf41	-0.042403463
93	0x3dc5b762	0.09654118
94	0x3cb2244c	0.021745823
95	0x3d9e6cf5	0.07735626
